tmp/models/litemono925_weights_19/depth.pth (torch, 913681 bytes, 15 tensors)

decoder.0.conv.conv.weight f4 [64, 128, 3, 3]
0	0xbd168712	-0.036749907
1	0x3bb13254	0.005407611
2	0xbd285852	-0.041099854
3	0xbc6f1571	-0.014592514
4	0xbd2c7424	-0.042102948
5	0xbc9e1578	-0.019297346
6	0xbbcd6eec	-0.0062693264
7	0xbc85699a	-0.016285706
8	0xbc00b336	-0.007855227
9	0xbb9929e4	-0.004674183
10	0x3d56cb7a	0.052440144
11	0x3cbc18a2	0.022960965
12	0xbd2b1009	-0.04176334
13	0x3973e870	0.00023260876
14	0xbd6d86e8	-0.057989985
15	0xbd4586f5	-0.04822441
16	0xbd060355	-0.03271802
17	0xbd216f96	-0.039413057
18	0xbba05271	-0.0048926403
19	0x3c6bd475	0.014393915
20	0xbd451409	-0.04811481
21	0x3cd7d024	0.026344366
22	0x3d8379aa	0.0641969
23	0x3d080ebd	0.03321718
24	0x3cace2b8	0.021104202
25	0x3d20d5aa	0.039266266
26	0x3d08c64a	0.03339223
27	0xbbb92a72	-0.005650812
28	0xbccd07bf	-0.025028108
29	0xba0a7df3	-0.000528305
30	0xbce28bce	-0.027654555
31	0xbd54d4fc	-0.05196093
32	0x3c2a5883	0.010397079
33	0x3bccdb39	0.0062517193
34	0x3cbe6046	0.023239266
35	0x3ae078e1	0.0017125868
36	0x3d087bc1	0.033321146
37	0x3d4e9675	0.050436456
38	0x3d4649bd	0.048410166
39	0x3db83af5	0.0899562
40	0x3cb5fa20	0.022213995
41	0x3db71015	0.08938614
42	0x3c30f486	0.010800486
43	0x3afc0e14	0.001923027
44	0x3ca14347	0.0196854
45	0x3d0a0eaa	0.03370539
46	0x3c894c55	0.01676003
47	0x3d1247d6	0.03571304
48	0x3d1cd33a	0.03828738
49	0x3d019223	0.031633507
50	0x3c3e19d7	0.01160284
51	0xbcd16e5e	-0.025565322
52	0xbd0bdfcd	-0.03414898
53	0xbbcf3a2b	-0.006324073
54	0x3cec7163	0.02886266
55	0xbafe3bac	-0.0019396446
56	0x3d543d2b	0.051816147
57	0x3c5d7e02	0.013518812
58	0x3ca2fd82	0.019896273
59	0x3c96ea70	0.018422335
60	0x3c9c18e1	0.019054832
61	0x3c931b7b	0.01795744
62	0xbc20fc95	-0.009825845
63	0x3aadf041	0.0013270454
64	0x3d02edee	0.03196519
65	0x3c443a96	0.011976859
66	0x3d5944a6	0.053043984
67	0x3deebfbb	0.116576634
68	0x3d6e6e56	0.058210693
69	0x3a4b1ccf	0.0007748128
70	0x3cb4d642	0.022074822
71	0x3cee1cbb	0.029066434
72	0xbd4f6b5d	-0.0506395
73	0xbd6aabb1	-0.057292644
74	0xbd7a6f73	-0.061141443
75	0xbb059950	-0.002038557
76	0x3d47c4ab	0.04877154
77	0x3ce6d58e	0.028178003
78	0x3d660cf3	0.056164693
79	0xbbf2716e	-0.007398776
80	0x3d64a70b	0.055823367
81	0xbd3d53aa	-0.046222366
82	0xbd025463	-0.03181876
83	0xbd2350fc	-0.039872155
84	0x3cfd19eb	0.030896148
85	0xbcac4ffc	-0.021034233
86	0x3b4d4ff1	0.0031328166
87	0x3d83da08	0.064380705
88	0x3da25387	0.07926088
89	0x3dc18002	0.09448244
90	0x3b5b4b83	0.0033461757
91	0x3d462c4c	0.04838209
92	0xba9d973b	-0.001202322
93	0xbc3afdc6	-0.011413043
94	0x3b587d5b	0.0033033702
95	0xbcdb9ea8	-0.026809052
96	0xbd2d9a7b	-0.042383652
97	0xbd2c4d6e	-0.04206603
98	0xbcd621cf	-0.026139168
99	0xbcecbe99	-0.028899478
100	0x3c99cf0c	0.018775485
101	0xbd2f3823	-0.042778146
102	0xbc9d19b3	-0.019177293
103	0xbcd58ea3	-0.026068991
104	0xbb32d11c	-0.0027285283
105	0x3d897b42	0.06712963
106	0x3d81678f	0.0631858
107	0x3d2d5502	0.042317398
108	0x3dd583dd	0.104255415
109	0x3da86c40	0.08223772
110	0x3de0bf28	0.1097396
111	0x3cc87996	0.02447204
112	0x3ce52801	0.027973177
113	0x3c670c38	0.014102034
114	0xbcd7845b	-0.02630823
115	0xbca2e19c	-0.01988297
116	0xbc356860	-0.011072248
117	0xbc881976	-0.016613703
118	0xbd078f3e	-0.03309559
119	0xbcacefdd	-0.02111047
120	0xbd043830	-0.032280147
121	0xbda58f80	-0.08084011
122	0xbcafe7fe	-0.021472927
123	0xbc2c6e16	-0.010524293
124	0x3ab8d302	0.0014100971
125	0xbc02c651	-0.007981853
126	0xbbc09566	-0.0058771847
127	0xbba2a406	-0.004963401
128	0xbc71c2d0	-0.01475592
129	0xbc71f05c	-0.014766779
130	0xbc136830	-0.008997008
131	0xbb547d39	-0.0032423271
132	0x3ca0d6dd	0.019633705
133	0x3c400ec6	0.011722272
134	0x3be956b6	0.0071209325
135	0xbd0398d0	-0.032128155
136	0x3ca83df0	0.020537347
137	0x3b9fabdd	0.0048727826
138	0xbbec0ec6	-0.0072039096
139	0x3db7b5d2	0.08970226
140	0x3c91dbce	0.017805006
141	0x3c13e6be	0.009027181
142	0xbcb49e78	-0.02204822
143	0xbb31df92	-0.0027141315
144	0xbd311825	-0.043235917
145	0xbced8ff9	-0.028999316
146	0xbd31f36b	-0.043445032
147	0x3c295e5a	0.010337437
148	0xbc40fd00	-0.01177907
149	0xbd16b43c	-0.03679298
150	0x3c69e5cf	0.014275982
151	0x3d0fa929	0.035073433
152	0x3d3eab37	0.046550002
153	0xbc83bb68	-0.016080573
154	0x3bace16f	0.005275897
155	0xbc730d63	-0.014834735
156	0x3ca6cc28	0.020361021
157	0x3d3bac5a	0.045818664
158	0xbc1a2baa	-0.009409824
159	0xbbbdf485	-0.0057969713
160	0x3d22f7fa	0.03978727
161	0xbcb16bcd	-0.021657849
162	0x3b625102	0.0034533148
163	0xbbc3bfbc	-0.0059737843
164	0x3cc76c0b	0.024343511
165	0x3c8f7001	0.017509462
166	0x3c8837e2	0.01662821
167	0x3cc5399b	0.02407532
168	0xbc43ca21	-0.011950047
169	0xbbd44df2	-0.0064790184
170	0xbcd1457e	-0.025545832
171	0x3c623b21	0.013808043
172	0x39b6c782	0.0003486239
173	0xbcfa67dd	-0.030567104
174	0xbbc45608	-0.005991701
175	0xbc860d37	-0.016363723
176	0x3cf1df1a	0.029525328
177	0x3cc01e53	0.02345196
178	0xbc058227	-0.0081487065
179	0xbbdc1fdb	-0.0067176647
180	0xbbc75084	-0.0060825963
181	0xbc90264b	-0.017596385
182	0xbd2d0549	-0.04224137
183	0x3cfa0830	0.030521482
184	0xbcc4fe7a	-0.024047125
185	0xbbc8dcf9	-0.0061298576
186	0xbc34751d	-0.01101425
187	0xbcacadb5	-0.021078924
188	0xbc9f1eb9	-0.01942383
189	0xbb681a8e	-0.0035416218
190	0xbd2fb702	-0.04289914
191	0xbd1ffb88	-0.03905824
192	0xbcde73bd	-0.027154798
193	0xbd55e147	-0.052216794
194	0xbd00629d	-0.031344045
195	0xbd58f592	-0.05296857
196	0xbd8967c1	-0.067092426
197	0xbcd1308c	-0.025535844
198	0x3cc84371	0.024446221
199	0xbc4d17fa	-0.0125179235
200	0xbd0b369f	-0.033987638
201	0xbd2be997	-0.041970816
202	0xbcabf6f2	-0.020991776
203	0x3ac4d768	0.0015017809
204	0x3c8218a9	0.0158809
205	0x3c99abbb	0.018758645
206	0x3bb08eb7	0.0053881067
207	0x3cb3cbde	0.021947797
208	0x3c2c5d90	0.010520354
209	0x3d100db8	0.035169333
210	0xbcc173ed	-0.023614848
211	0xbcaaded7	-0.020858211
212	0x3c659d3e	0.01401454
213	0x3c74a2a4	0.014931355
214	0xbc8bab7d	-0.017049545
215	0xbb820c64	-0.0039687622
216	0xbd9e1dfb	-0.07720562
217	0xbd601398	-0.054706186
218	0xbd84d9d8	-0.06486863
219	0xbc138ba0	-0.009005457
220	0x3c386b51	0.011256055
221	0xbbb70b9d	-0.005586101
222	0xbb1de668	-0.0024093632
223	0x3cc15b80	0.0236032
224	0x3d04f87f	0.032463547
225	0xbc56b0f7	-0.013103715
226	0x3ceb20d5	0.028702179
227	0xbc82649e	-0.015917119
228	0x3d254d47	0.0403569
229	0x3d209efb	0.039214116
230	0x3d33df5b	0.04391418
231	0x3badfcf0	0.0053096935
232	0x3d1013b2	0.035175033
233	0x3c25a587	0.010110266
234	0xbd34eeb8	-0.044172972
235	0xbcf58f11	-0.029975446
236	0xbbe96346	-0.00712243
237	0x3c8b4f49	0.01700558
238	0xb9417f35	-0.00018453303
239	0xbb053f32	-0.0020331857
240	0x3d2a620c	0.04159741
241	0x3ce0ff22	0.027465407
242	0xbbee79a7	-0.0072776857
243	0x3ccd3d03	0.025053507
244	0x3a0d9b75	0.0005401888
245	0xbc103fed	-0.008804304
246	0x3c00d317	0.007862828
247	0xbb88009a	-0.0041504623
248	0x3c55d87c	0.013052102
249	0x3ceea902	0.029133324
250	0x3d893069	0.06698687
251	0x3dad7713	0.08469977
252	0xbc1c3050	-0.009533003
253	0x3ce8c641	0.028414847
254	0x3baee2fe	0.005337118
255	0xbc80fb76	-0.015744906

decoder.0.conv.conv.bias f4 [64]
0	0xbc791502	-0.015202763
1	0xbc92cbdb	-0.017919471
2	0x3a39ed48	0.00070925476
3	0xba4fb370	-0.00079231616
4	0xbd203256	-0.039110504
5	0x3c8ffdd9	0.017577099
6	0x3bb8e924	0.005643027
7	0x3b79a310	0.0038091578
8	0xbc027dbc	-0.007964548
9	0x3b5e04fd	0.0033877485
10	0x3c654d16	0.0139954295
11	0xbc1328e5	-0.008981918
12	0xbd21f94f	-0.0395444
13	0x3bcaf16a	0.0061933296
14	0xbc4c9197	-0.012485883
15	0xbbeafbe8	-0.007171143
16	0x3ce25b33	0.027631378
17	0xbc9c6194	-0.019089498
18	0x3ca8b074	0.020591952
19	0x3bbe7bd0	0.0058130994
20	0x3b1e11e4	0.002411955
21	0xbcad65b8	-0.021166667
22	0xbcdf1c32	-0.027235124
23	0xbb84fcbc	-0.0040584486
24	0xbc4aef98	-0.012386225
25	0xbd5d308f	-0.054001387
26	0xbd1e6099	-0.03866634
27	0xbd14a7bd	-0.03629278
28	0xbba5729e	-0.005049064
29	0x3c05884a	0.00815017
30	0x3c9c22b3	0.019059515
31	0xbcaf0484	-0.021364458
32	0xbc2a75fc	-0.010404106
33	0x3d1d8702	0.03845883
34	0x3c8fc0b5	0.017547945
35	0xbcc57866	-0.024105262
36	0xbccb3e63	-0.024810022
37	0xbd486fc7	-0.048934724
38	0xbbeb670f	-0.0071839164
39	0xbcacc54d	-0.021090174
40	0xbc5e269b	-0.013559009
41	0x3c716b5a	0.014735067
42	0xbc908ee5	-0.017646262
43	0xbccd0bd7	-0.02503006
44	0xbc3554fc	-0.011067625
45	0xbd0b8347	-0.034060743
46	0xbcc1c5f7	-0.023653967
47	0xbd22771e	-0.03966438
48	0x3c95e0ae	0.018295612
49	0x3c70812d	0.014679235
50	0xbd02732d	-0.03184812
51	0x3b33733a	0.0027381913
52	0xbbe4b079	-0.006979045
53	0x3ca46538	0.020067796
54	0xbc455aaf	-0.012045546
55	0xbaafb93a	-0.0013406642
56	0xbb9342ae	-0.004494033
57	0xbd27de16	-0.040983282
58	0xbcdb2bc5	-0.02675427
59	0xbc5c2cd0	-0.0134384185
60	0x3c803103	0.01564837
61	0xbcc98343	-0.024598723
62	0xbcf67a7d	-0.030087704
63	0xbd817a14	-0.06322113

decoder.1.conv.conv.weight f4 [64, 144, 3, 3]
0	0xbd387d19	-0.045041177
1	0xbcb4b850	-0.022060543
2	0xbd038c31	-0.03211612
3	0x3c710df4	0.014712799
4	0x3b8c0a6a	0.0042737024
5	0xbccb6b2f	-0.024831383
6	0x3db986d9	0.09058923
7	0x3dc2b8c4	0.095078975
8	0x3dbbb331	0.091650374
9	0xba0113bb	-0.00049238995
10	0x3bb11d9b	0.0054051406
11	0xbcf7305c	-0.030174427
12	0xbcdfbdf3	-0.027312255
13	0xbc140055	-0.009033282
14	0xbcad31f9	-0.021141993
15	0xbd0a283e	-0.033729784
16	0xbd7061b1	-0.058686916
17	0xbcfc9057	-0.030830545
18	0x3caf9e73	0.02143786
19	0xbbd83a11	-0.006598719
20	0x3d1743bb	0.036929827
21	0xbc244d2a	-0.010028163
22	0x3d0f439f	0.034976598
23	0x3b94fbb3	0.0045466064
24	0x3ceff1d0	0.02929011
25	0x3c19d1fc	0.009388443
26	0x3c90587c	0.017620318
27	0xbcb4dd32	-0.02207813
28	0xbcd5ac13	-0.026083028
29	0xbd8b7ecf	-0.06811296
30	0xbd08913d	-0.033341635
31	0xbd1ee205	-0.038789768
32	0xbd00cf26	-0.031447552
33	0xbc862ca8	-0.016378716
34	0xbd352b3f	-0.044230696
35	0xbc3cd39e	-0.011525063
36	0xbc56a83d	-0.013101635
37	0xbc9c8a21	-0.019108834
38	0xbd30ba03	-0.043146145
39	0xbd3c5e50	-0.04598838
40	0x3c251ebf	0.010078131
41	0x3ba49b46	0.005023393
42	0xbd1f4551	-0.038884465
43	0x3ac3c104	0.0014934842
44	0xbceb4b30	-0.028722376
45	0x3c7aac51	0.0152998725
46	0x3ca40328	0.020021036
47	0x3bdcf62a	0.006743212
48	0xb9cbb0c5	-0.0003885088
49	0xbc047764	-0.008085106
50	0x3c1c272a	0.009530822
51	0x3d06ed21	0.032940987
52	0x3ce86dad	0.02837261
53	0xbce0cd91	-0.027441772
54	0x3c91597a	0.017742861
55	0x3d22286b	0.039589327
56	0xbb510cdb	-0.0031898532
57	0x398ca14b	0.00026823053
58	0x3bf6df80	0.0075339675
59	0x3b64409d	0.0034828552
60	0x3ae630ea	0.0017562185
61	0x3a3a0b91	0.00070970604
62	0x3c382cbf	0.011241137
63	0xbd42463c	-0.047430262
64	0xbcb18132	-0.02166805
65	0xbd10d65a	-0.03536067
66	0xbc5394f3	-0.01291393
67	0xbc9e3655	-0.019313017
68	0xbc9a633b	-0.018846145
69	0xbbf6dfb5	-0.007533992
70	0xbaa40366	-0.001251322
71	0xbcf37381	-0.029718162
72	0x3c30732f	0.010769649
73	0x3cc4d14b	0.02402558
74	0xbb89470c	-0.0041893777
75	0x3c85c69f	0.016330061
76	0x3d073837	0.033012595
77	0x3b9d9a32	0.0048096413
78	0x3cea41c1	0.028595807
79	0x3d0ebccc	0.03484802
80	0x3c4bdd8e	0.0124429595
81	0xbd435489	-0.04768804
82	0xbbf92ca6	-0.0076041995
83	0xbccae087	-0.024765266
84	0x3be291f8	0.0069143735
85	0xbc79ec5f	-0.015254109
86	0xbd238569	-0.03992215
87	0xbd653ffd	-0.055969227
88	0xbcc032b4	-0.023461677
89	0xbd192d55	-0.037396748
90	0x3a8d83de	0.0010796746
91	0xbb8dc48e	-0.0043264097
92	0xbd0bceda	-0.034132816
93	0xbc5428c5	-0.012949173
94	0x3ba78a89	0.00511295
95	0x3bae6ac8	0.005322788
96	0x3c5ce80f	0.013483061
97	0x3cef8ac5	0.029240975
98	0xba91601e	-0.0011091267
99	0x3d366486	0.04452946
100	0x3d8878f7	0.06663697
101	0x3d50da96	0.05098971
102	0x3992fc77	0.0002803539
103	0xbcd8d43f	-0.026468394
104	0x3cab8d58	0.020941421
105	0x3d12e757	0.035865154
106	0x3c895750	0.016765267
107	0x3cb0cc92	0.021581922
108	0x3d0b9133	0.03407402
109	0x3cb572e6	0.022149514
110	0x3c9fbdf9	0.019499766
111	0x3c865d70	0.016401976
112	0xbc3a1177	-0.011356703
113	0xbbb20f35	-0.0054339417
114	0x3d41ff60	0.047362685
115	0xbb085e07	-0.0020807998
116	0xbc3a20df	-0.011360376
117	0x3cb31ade	0.021863397
118	0x3d264ea3	0.040602338
119	0x3d836a0d	0.06416712
120	0x3d0a8367	0.03381672
121	0x3cbcbd80	0.02303958
122	0x3d437f6d	0.047728945
123	0x3d0cf1d9	0.03441033
124	0x3d05f05f	0.03269994
125	0x3d674e55	0.056471188
126	0x3c8a6565	0.016894052
127	0x3bb8ce0b	0.0056397966
128	0x3c944ea9	0.018103914
129	0xbc364710	-0.011125341
130	0x3b9e5ecf	0.0048330794
131	0x3c855fb0	0.016280979
132	0x3b2163b0	0.0024626069
133	0x3ce38ab1	0.027776094
134	0x3c74ac30	0.014933631
135	0x3d2a633b	0.04159854
136	0x3d852126	0.06500463
137	0x3d0d3f86	0.03448441
138	0x3cb8cf88	0.022559896
139	0x3cbce643	0.023059016
140	0x3cac5287	0.021035446
141	0x3d11c38d	0.035586882
142	0x3c3985b1	0.011323378
143	0x3c67e95a	0.014154756
144	0xbd2d38f2	-0.042290635
145	0xbb8d28f2	-0.0043078596
146	0xbd85ffb8	-0.06542915
147	0xbc79a464	-0.015236948
148	0x3c806f95	0.015678206
149	0xbc7a2278	-0.015267007
150	0x3cd894d8	0.026438162
151	0x3ceb7e2f	0.028746692
152	0x3d1fe115	0.039033014
153	0xbd0d97e6	-0.03456869
154	0xbd39424c	-0.04522924
155	0xbc259a33	-0.010107565
156	0xbb884000	-0.00415802
157	0xbcaef0ba	-0.021355022
158	0xbd605cf0	-0.054776132
159	0x3cbd7c89	0.023130672
160	0x3c7afdb1	0.015319274
161	0xbc855517	-0.016275926
162	0x3d933b14	0.07189003
163	0xbcab7a14	-0.020932235
164	0xbc545834	-0.012960482
165	0x3ce7e2e9	0.028306441
166	0x3bf55745	0.00748721
167	0xbd599bb7	-0.053127017
168	0x3cf0db1a	0.02940135
169	0x3a85b7db	0.0010201888
170	0xbd8dabea	-0.06917556
171	0x3a836640	0.001002498
172	0x3c214ae2	0.009844514
173	0xbc702516	-0.0146572795
174	0x3b67b117	0.0035353357
175	0x3cbe1330	0.023202509
176	0x3c49a3e5	0.012307142
177	0x3cdb2dec	0.026755296
178	0x3ba48bfe	0.005021571
179	0x3d065a9d	0.03280126
180	0xbcea534e	-0.028604176
181	0x3b26e855	0.002546807
182	0x3bbe7cc0	0.005813211
183	0xbb4f79ae	-0.003165822
184	0x3ce39fe5	0.027786205
185	0x3d39005b	0.045166355
186	0x3d288573	0.041142892
187	0x3d4b45ed	0.049627233
188	0x3d5f4c82	0.054516323
189	0x3ba4cfc5	0.005029651
190	0xbc1d19c0	-0.009588659
191	0xbccef313	-0.025262391
192	0x3c9d378d	0.019191528
193	0x3c3d46b8	0.011552505
194	0xbcfe0421	-0.031007828
195	0x3c8bad44	0.017050393
196	0x3b6a444e	0.003574628
197	0xbd7907ef	-0.06079858
198	0xbb4d2843	-0.0031304515
199	0xb7fe7df6	-3.0337815e-05
200	0x3cd12f96	0.025535386
201	0xbc8d9b10	-0.017285854
202	0xbcd3fed9	-0.025878357
203	0x3ca1e240	0.019761205
204	0xbc2bb24e	-0.010479523
205	0xbcafafb4	-0.021446086
206	0x3cb028d0	0.021503836
207	0x3d2d52c7	0.04231527
208	0x3d280ef3	0.04102988
209	0x3c3edbcf	0.011649086
210	0xbc5132e5	-0.012768482
211	0x3d0b1c90	0.033962786
212	0x3c061626	0.008183992
213	0x3c482aa4	0.012217198
214	0x3cf1fb78	0.029538855
215	0x3bfbb7f5	0.0076818415
216	0x3c815356	0.015786808
217	0x3958af7b	0.00020664737
218	0x3ba71628	0.005099077
219	0xbd066bc9	-0.032817636
220	0xbcd32a28	-0.025776938
221	0xbba8daf9	-0.0051530567
222	0xbd6261d4	-0.055269077
223	0xbd83ff95	-0.06445233
224	0xbd8aee20	-0.067837
225	0xbb3387e0	-0.002739422
226	0xbb731e47	-0.0037096904
227	0x3c97c7ae	0.018527832
228	0xbbcb43cb	-0.00620315
229	0x3c86f41e	0.016473826
230	0x3cd7098a	0.026249666
231	0x3db0ede2	0.086391225
232	0x3d568604	0.0523739
233	0x3d934db1	0.07192553
234	0xbcb3d5d1	-0.021952542
235	0xbbf17def	-0.007369749
236	0xbb88d5e7	-0.00417589
237	0x3cdac2a4	0.02670414
238	0x3cd1a4c8	0.02559127
239	0x3cbbeb45	0.022939334
240	0x3d44ebf2	0.048076577
241	0x3cf96a73	0.030446267
242	0x3d9e6095	0.07733265
243	0x3c6af149	0.014339753
244	0x3c07b365	0.008282517
245	0x3c7b27a6	0.015329277
246	0xbcc85498	-0.0244544
247	0xbcaeaea1	-0.021323504
248	0xbc46634f	-0.012108638
249	0xbd66a2fc	-0.056307778
250	0xbd00b3ee	-0.031421594
251	0xbd4f7138	-0.050645083
252	0x3c95238e	0.01820543
253	0x3d90266a	0.07038577
254	0x3ce94a93	0.028477943
255	0x3ce35809	0.02775194

decoder.1.conv.conv.bias f4 [64]
0	0xbd7e4583	-0.06207801
1	0xbce9758b	-0.028498432
2	0xbd0260bb	-0.03183053
3	0x3d6fcdc1	0.05854583
4	0xbbe75fb0	-0.0070609674
5	0xbdaccbe8	-0.084373295
6	0xbc01bf10	-0.007919088
7	0x3c20f7f6	0.0098247435
8	0xbcc52e84	-0.024070032
9	0xbcde5e53	-0.027144587
10	0xbcdc4ff0	-0.026893586
11	0xbd43da30	-0.0478155
12	0xbb17b4e8	-0.00231486
13	0xbd2a0b0b	-0.041514438
14	0xbd0dfe85	-0.034666557
15	0xbcc5ad02	-0.024130348
16	0x3d62d131	0.05537528
17	0xbd53ca9a	-0.051706888
18	0xbc0601cc	-0.008179139
19	0xbdf0db27	-0.1176055
20	0xbbf72fe1	-0.0075435494
21	0xbc3ef209	-0.011654385
22	0xbc358091	-0.011078016
23	0xbd0b6f37	-0.03404161
24	0xbc8746ce	-0.016513254
25	0x3d8c86fe	0.06861685
26	0xbc164263	-0.009171101
27	0xbb55ed69	-0.0032642728
28	0xbce8f8b2	-0.0284389
29	0xbd07a220	-0.0331136
30	0xbcd2908b	-0.02570369
31	0x3c869866	0.016430091
32	0xbd8cceaa	-0.068753555
33	0xbdcb9213	-0.09939971
34	0x3c16f53c	0.009213742
35	0xbd8430a8	-0.06454593
36	0xbda76445	-0.08173422
37	0x3cdf686a	0.027271468
38	0xbcce3cc1	-0.025175454
39	0xbd2f98a8	-0.042870194
40	0x3c223f74	0.009902824
41	0xbd04f4e0	-0.032460093
42	0xbc086ffa	-0.008327479
43	0x3c9076ad	0.017634714
44	0x3badcb79	0.005303797
45	0xbe547b8a	-0.20750251
46	0xbd667010	-0.056259215
47	0xbc2bf7e8	-0.010496117
48	0xbd17d6c4	-0.03707005
49	0xbdb3af50	-0.087736726
50	0x3d4baa4d	0.04972296
51	0x3cfaec24	0.030630179
52	0xbe0e30fd	-0.13885875
53	0xbe74b707	-0.23897944
54	0xbd93f8a1	-0.072251566
55	0xbd39c4df	-0.045353767
56	0xbd181b5f	-0.037135478
57	0xbd628f08	-0.055312186
58	0xbc7118fb	-0.014715428
59	0x3a1865d5	0.0005813514
60	0x3d502b03	0.05082227
61	0xbd8705e9	-0.06592924
62	0xbd582c96	-0.052776895
63	0xbd9fa31b	-0.07794782

decoder.2.conv.conv.weight f4 [40, 64, 3, 3]
0	0x3ca446c6	0.020053279
1	0x3c9030ff	0.017601488
2	0x3d445cb6	0.04793998
3	0x3cd753e2	0.026285116
4	0x3cdcad85	0.02693821
5	0x3d0f5646	0.034994386
6	0x3caa6872	0.020801757
7	0x3d33374f	0.04375392
8	0x3d352c43	0.044231664
9	0x3c74fb9d	0.014952567
10	0xb9f2b27c	-0.00046290818
11	0x3d29b528	0.04143253
12	0xbb2157d3	-0.0024618998
13	0xbbe2f7f5	-0.0069265314
14	0x3c36f21d	0.011166123
15	0x3c950cde	0.018194612
16	0x3aeaa5e2	0.001790222
17	0x3bd9fa5a	0.0066521587
18	0xbc40f081	-0.011776091
19	0x3c32db7f	0.01091659
20	0xbd066732	-0.03281326
21	0xbca2fc8a	-0.01989581
22	0xbb3469d3	-0.0027528896
23	0x3c0e0941	0.0086691985
24	0xbd0e2690	-0.034704745
25	0xbc11ae47	-0.008891649
26	0x3c4feb75	0.012690415
27	0x3c0e19f9	0.008673185
28	0x3cc61593	0.02418021
29	0x3cdb331e	0.026757773
30	0x3cf92d6e	0.03041717
31	0xbd038b63	-0.03211535
32	0x3c4e880b	0.012605677
33	0x3c751e42	0.014960827
34	0xbbbd3613	-0.0057742684
35	0xbd0b083e	-0.033943407
36	0x3a8944ea	0.0010472808
37	0xbb86dbf0	-0.004115574
38	0x3d545354	0.05183728
39	0xbc23f38d	-0.0100067975
40	0x3b3c4013	0.0028724715
41	0xbc29f1ae	-0.010372562
42	0xbb86ab57	-0.004109781
43	0xbad63109	-0.0016341518
44	0xbce1b2e4	-0.027551122
45	0xbd6a7d2a	-0.057248272
46	0xbcedb5b6	-0.02901731
47	0xbca2c6ad	-0.019870127
48	0x3d11cde8	0.035596758
49	0xbbcae9ec	-0.0061924364
50	0x3c551afa	0.01300692
51	0xbcf31a2c	-0.029675566
52	0x3bef480c	0.00730229
53	0x3cf5e76a	0.030017573
54	0xbbce8d47	-0.0063034627
55	0xbd30362d	-0.043020416
56	0xbc591b72	-0.013251172
57	0xbca6b2ae	-0.020348873
58	0xbdd0ab3e	-0.10188912
59	0xbc0ba92c	-0.00852422
60	0x3d3376dc	0.043814525
61	0x3c4b1c3b	0.012396867
62	0x3d6f267e	0.05838632
63	0x3d2f95d4	0.042867497
64	0x3cccf962	0.025021259
65	0x3ce23f62	0.027618114
66	0x3c5386e9	0.012910583
67	0xbb7bf3bf	-0.0038444845
68	0xbca550ee	-0.020180192
69	0x3c983aaf	0.01858267
70	0xbcc6992c	-0.02424296
71	0xbd257fe3	-0.040405165
72	0x3cc3b219	0.023888635
73	0xbc9c4322	-0.01907498
74	0xbc16a094	-0.009193558
75	0x3d062ba3	0.03275646
76	0xbca1007c	-0.019653551
77	0xbca6349a	-0.020288754
78	0x3b82a3ac	0.0039867964
79	0xbd8729f1	-0.065997966
80	0xbc2d4dd5	-0.010577639
81	0x3c6eca8b	0.014574657
82	0x3c84ed16	0.016226333
83	0x3cd21e86	0.02564932
84	0xbc791376	-0.015202394
85	0xbd25f596	-0.040517412
86	0x3d25b175	0.04045244
87	0x3b123553	0.0022309616
88	0xbcfc90f6	-0.030830842
89	0x3cb245d6	0.021761816
90	0xbaca23ec	-0.0015422083
91	0x3c947a3f	0.018124698
92	0x3d0a405b	0.03375278
93	0xbcd43bc1	-0.0259074
94	0x3bb3d613	0.005488166
95	0x3c6c8066	0.014434909
96	0xbbab88ec	-0.005234828
97	0x3b44b28e	0.0030013653
98	0x3c06e982	0.008234384
99	0x3d70b104	0.058762565
100	0x3cff7137	0.031181915
101	0x3d4564a6	0.04819169
102	0xbd037810	-0.032096922
103	0xbc66aa48	-0.014078684
104	0xbb7d3417	-0.0038635784
105	0x3bdf1d64	0.0068089236
106	0x3ce0a602	0.027422909
107	0x3d34c7b2	0.044135757
108	0x3c714677	0.014726273
109	0xbb91db28	-0.0044511743
110	0xbbb77d51	-0.0055996557
111	0x3ca36c99	0.019949244
112	0x3d1f00f1	0.038819257
113	0x3af6b9d3	0.001882369
114	0xbb91bc9a	-0.004447532
115	0xbd26be4b	-0.04070882
116	0xbcc0042f	-0.023439495
117	0xbc509f75	-0.01273333
118	0xbb8e3ec7	-0.0043409797
119	0x3bac7b48	0.0052637197
120	0xbc22c2e1	-0.009934158
121	0xbcfb97dd	-0.030712062
122	0x3cbc97f2	0.023021672
123	0x3c208dcb	0.009799431
124	0xbba2103c	-0.004945783
125	0x3cde1a7c	0.027112238
126	0x3c2d83f2	0.01059054
127	0x3b5bffb0	0.003356915
128	0xbbdd17a8	-0.006747205
129	0x3d3722d3	0.044710945
130	0x3cb6552d	0.022257412
131	0x3c6e20d0	0.01453419
132	0x3bde12b5	0.0067771324
133	0x3bb59f6b	0.0055426857
134	0xbce7eb92	-0.02831057
135	0xbbdebccf	-0.00679741
136	0xbccc009e	-0.024902638
137	0x3770d670	1.4355042e-05
138	0xbd1831c4	-0.037156835
139	0xbcae76ee	-0.021296944
140	0x3cb1c89f	0.021702109
141	0xbc86d2d9	-0.016457962
142	0xbc374747	-0.011186427
143	0x3d1806f1	0.037115995
144	0x3c229bfc	0.009924885
145	0x3bc8da91	0.006129571
146	0x3c49fef3	0.012328851
147	0xbb386b77	-0.0028140226
148	0xbcd07c71	-0.025449963
149	0xbc44c9d6	-0.012011012
150	0x3dbc2fd1	0.09188808
151	0x3cd1234a	0.025529522
152	0x3d035f87	0.032073524
153	0x3cedf09e	0.0290454
154	0x3d123506	0.0356951
155	0x3cb34d7c	0.021887533
156	0xbcdb4544	-0.026766427
157	0xbc8fade6	-0.017538976
158	0xbcfdc34a	-0.03097691
159	0xba9f0f76	-0.0012135345
160	0x3cd85863	0.026409334
161	0x3ba75325	0.005106347
162	0xbc821f63	-0.015884107
163	0x3d0b32ee	0.033984117
164	0xbd314971	-0.04328293
165	0x3b54cca0	0.0032470599
166	0xbc3aabf9	-0.011393541
167	0xbd272d2d	-0.040814567
168	0xbcd84482	-0.026399855
169	0xbd473c24	-0.04864134
170	0xbc11c103	-0.008896115
171	0x3d206969	0.039163027
172	0x3d444016	0.04791268
173	0x3cff47d4	0.03116218
174	0x3d8f646b	0.07001575
175	0x3d14317e	0.036180012
176	0x3d81cb46	0.063375995
177	0x3db301b3	0.087405585
178	0x3d3c6b92	0.046001025
179	0x3d3c2e5d	0.045942653
180	0x3cbfd726	0.02341802
181	0xba65b53b	-0.0008762662
182	0xbc95b98f	-0.018276958
183	0xb9b9859b	-0.00035385494
184	0x3cd6edfb	0.026236525
185	0x3cf691b6	0.030098777
186	0x3d0d2f94	0.034469202
187	0xbcf9b24b	-0.030480525
188	0x3c14db29	0.009085455
189	0xbc56b1d7	-0.013103924
190	0x3ac44165	0.0014973102
191	0x3c3c260e	0.011483682
192	0xbc52214b	-0.0128253205
193	0xbcc88fca	-0.024482626
194	0xbbe58c8a	-0.007005279
195	0x3bf1030f	0.007355101
196	0xbcd0a5d0	-0.02546969
197	0x3b9e4512	0.004830011
198	0x3d003798	0.03130302
199	0x3d3ce317	0.046115007
200	0x3c9996b4	0.018748619
201	0x3cbbffec	0.022949181
202	0xbd130d78	-0.035901517
203	0xbb2cc1e2	-0.002636068
204	0xbd04f519	-0.032460306
205	0xbcb47a2e	-0.022030916
206	0xbd48ad6d	-0.048993517
207	0xbc18de77	-0.0093303835
208	0xbd20cda7	-0.039258625
209	0x3c4dfe0b	0.012572776
210	0xbd31f36e	-0.043445043
211	0xbd4af67a	-0.049551465
212	0xbc326f56	-0.010890802
213	0xbc16d042	-0.009204926
214	0xbd1d8746	-0.038459085
215	0x3c9c3f12	0.019073043
216	0xbcde5919	-0.027142094
217	0xbcd6ee15	-0.026236573
218	0x3bf11b86	0.0073580174
219	0x3bbe0c41	0.0057998006
220	0xbd6ef0eb	-0.058335226
221	0xbc93bbe6	-0.018033933
222	0xbbf6751e	-0.0075212857
223	0x3cbecaaa	0.023289997
224	0x3ce75936	0.028240781
225	0xbbc9b1e8	-0.0061552413
226	0x3c399d92	0.011329072
227	0xbbf06879	-0.007336673
228	0xbcac04c8	-0.020998374
229	0xbcbc8006	-0.023010265
230	0x3a976757	0.0011551183
231	0xbc6c73cc	-0.014431905
232	0x3be83704	0.0070866365
233	0xbcaf33f7	-0.021387083
234	0xbc9c7703	-0.019099718
235	0xbca80734	-0.020511247
236	0x3b28456a	0.002567614
237	0xbc318643	-0.010835233
238	0xbcb72a51	-0.022359045
239	0x3c2ee3f0	0.010674462
240	0x3caa329e	0.02077609
241	0x3cb591eb	0.022164306
242	0x3ce3bbea	0.027799565
243	0x3c76b022	0.015056642
244	0xbd0204be	-0.031742804
245	0xbb5468bb	-0.0032411057
246	0xbc0db7bf	-0.0086497655
247	0x3ce238f8	0.027615055
248	0xbcde7e62	-0.027159873
249	0xb91155ca	-0.00013860237
250	0x3d0a6f36	0.033797465
251	0x3b7480b1	0.0037308151
252	0x3cb3a637	0.021929843
253	0xbce51b88	-0.02796723
254	0xbccf22f0	-0.025285214
255	0x3b46d79d	0.0030340918

decoder.2.conv.conv.bias f4 [40]
0	0xbafbba5a	-0.0019205317
1	0x3b9f3760	0.004858896
2	0x3cebb2fe	0.028771874
3	0xbb753ec0	-0.0037421435
4	0x3b39afe0	0.002833359
5	0x3aa51417	0.0012594488
6	0xbb960f9d	-0.004579498
7	0xbccfecfe	-0.025381561
8	0x3d585493	0.05281503
9	0x3c78c3f2	0.015183436
10	0xbd1d5818	-0.03841409
11	0x3cfea079	0.031082379
12	0x3c92f8a1	0.017940821
13	0x3bef08c6	0.007294747
14	0xbbbe5fd4	-0.0058097634
15	0xbc1982c7	-0.009369559
16	0x3cd529ad	0.02602085
17	0xbc1c5903	-0.009542706
18	0xbd010551	-0.03149921
19	0x3c15ef6c	0.009151321
20	0x3c40c71c	0.011766221
21	0xbc519758	-0.012792431
22	0xbc0ad419	-0.00847342
23	0xbb85de91	-0.00408537
24	0xbd45e881	-0.048317436
25	0xbd0045ca	-0.031316556
26	0x3c7ffbe4	0.01562402
27	0x3ce87ade	0.0283789
28	0xbc2dbb24	-0.0106037
29	0xbd1b1f0a	-0.037871398
30	0xbacffa2a	-0.0015867401
31	0xbc407844	-0.011747424
32	0xbbf3cbda	-0.0074400725
33	0xbb7a6c8f	-0.0038211679
34	0xbc9bf8bf	-0.01903951
35	0xbc255d54	-0.010093052
36	0x3b612d1c	0.0034359163
37	0x3c64fea7	0.0139767295
38	0xbc70df66	-0.0147017
39	0xbcb645d7	-0.0222501

decoder.3.conv.conv.weight f4 [40, 88, 3, 3]
0	0x3c12c814	0.008958835
1	0xbd07450a	-0.033024825
2	0xbd0a6c2c	-0.033794567
3	0x3d517b92	0.051143236
4	0x3d2b205c	0.041778907
5	0x3c194f37	0.009357265
6	0x3dc93f1b	0.098264895
7	0x3e0939dc	0.13400978
8	0x3dabe882	0.08393957
9	0xbdd91cea	-0.10601218
10	0xbdd598e8	-0.10429555
11	0xbe2eebbf	-0.17082117
12	0xbde77a60	-0.11302638
13	0xbe04705f	-0.12933491
14	0xbdfdedf8	-0.123989046
15	0xbd13d221	-0.036089066
16	0x3cdf8791	0.027286323
17	0x3d1c0ab5	0.03809615
18	0xbcaf7093	-0.021415984
19	0xbd034a19	-0.032053087
20	0xbc64c3ee	-0.013962729
21	0xbcc14a0d	-0.02359488
22	0xbd0013e0	-0.031268954
23	0xbc54fd6e	-0.0129998755
24	0xbcd8d8da	-0.02647059
25	0x3b918d7f	0.0044419165
26	0xbcdfb5cc	-0.027308367
27	0x3d487848	0.048942834
28	0x3d0fd610	0.035116255
29	0x3d8f60a3	0.07000854
30	0x3d904363	0.07044103
31	0x3db4d942	0.08830501
32	0x3d7c4ec0	0.06159854
33	0x3db3661b	0.087597094
34	0x3d9a6bd9	0.075401016
35	0x3d6a8802	0.057258613
36	0x3c7a819d	0.015289691
37	0x3d49fddd	0.04931437
38	0x3c8818b4	0.016613342
39	0x3d4c22f6	0.04983803
40	0xbbe07ca5	-0.0068507963
41	0x3c941b6c	0.018079482
42	0x3c37c94b	0.011217426
43	0x3d3300ca	0.043701924
44	0x3ca89a11	0.020581277
45	0xbe08d409	-0.13362135
46	0xbd37a17f	-0.04483175
47	0xbd3ec9d7	-0.04657921
48	0xbd36e6f1	-0.044653837
49	0xbbf91775	-0.0076016732
50	0xbb26f8a9	-0.0025477803
51	0x3d881fe5	0.066467084
52	0x3d69ef7c	0.057113156
53	0x3c264fa8	0.0101508275
54	0xbd30b7d4	-0.043144062
55	0xbe040c4f	-0.1289532
56	0xbe0e9b98	-0.13926542
57	0xbc817fb3	-0.015807962
58	0xbcd2a745	-0.025714526
59	0xbd855c8f	-0.06511795
60	0x3cfd39ae	0.030911293
61	0xbd0286b5	-0.031866748
62	0xbcc59f34	-0.024123766
63	0xbd743d80	-0.059628963
64	0xbccfdbd6	-0.02537338
65	0xbd940a12	-0.07228483
66	0xbdbfb350	-0.09360373
67	0xbd9edf46	-0.0775743
68	0xbde5b2e8	-0.11215764
69	0xbd911a00	-0.07085037
70	0xbddcbf1d	-0.107786395
71	0xbe066978	-0.1312617
72	0x3df5f753	0.12010064
73	0x3d0a6131	0.033784095
74	0x3cc96e91	0.024588855
75	0x3e032339	0.12806405
76	0x3dad0572	0.08448304
77	0x3d2e83e8	0.042606264
78	0x3dd00a68	0.10158235
79	0x3dfaa296	0.12238042
80	0x3d86f6fc	0.06590077
81	0x3c104f5a	0.008807981
82	0x3c854c34	0.016271688
83	0x3cce51ef	0.025185553
84	0x3d059f23	0.032622468
85	0x3db3057c	0.087412804
86	0x3d93efd5	0.07223479
87	0x3d880818	0.06642169
88	0x3ddc8b9f	0.10768818
89	0x3db1d447	0.08683067
90	0x3cd7b3c0	0.026330829
91	0xbc5d20d5	-0.013496597
92	0xbd258f43	-0.04041983
93	0xbc8f62e3	-0.017503208
94	0xbc7b8ce9	-0.01535342
95	0x3c6569f3	0.014002311
96	0xbc9df830	-0.019283384
97	0xbc3c2fcd	-0.011486006
98	0xbcea011d	-0.028564984
99	0x3dc1229c	0.09430429
100	0x3d4328de	0.047646396
101	0x3cfbf7ef	0.030757872
102	0xb9a7d6f3	-0.00032012872
103	0xbd21ef8c	-0.03953509
104	0xbd35138a	-0.044208087
105	0xbd77255d	-0.060338367
106	0xbd078108	-0.03308204
107	0xbdb04f8c	-0.08608922
108	0x3c1cf7ff	0.009580611
109	0x3c9b3762	0.018947307
110	0xbcc8aede	-0.024497446
111	0x3cd0b8f4	0.025478818
112	0x3caf7dd8	0.021422312
113	0xbc98fa4f	-0.018674044
114	0x3d000803	0.03125764
115	0x3cc22f56	0.023704212
116	0xbc37c240	-0.011215746
117	0xbd29c5af	-0.04144829
118	0xbc28e80b	-0.01030923
119	0xbd143cbf	-0.036190744
120	0xbc885318	-0.016641185
121	0xbcdf425f	-0.027253328
122	0xbc193bd9	-0.009352648
123	0x3c3fd3d2	0.011708217
124	0xbc4ce934	-0.012506772
125	0xbcfcf6f8	-0.030879483
126	0x3d9bc378	0.07605642
127	0xbc5d1f06	-0.013496166
128	0xbd26c6ab	-0.04071681
129	0x3d114a68	0.03547135
130	0x3d3dcc8e	0.046337657
131	0xbb68d7e3	-0.003552907
132	0x3d95fcb5	0.07323591
133	0x3da84674	0.08216563
134	0x3ce36ffe	0.027763363
135	0xbcc2b2a8	-0.02376683
136	0xbc0f9d7c	-0.008765575
137	0xbc729957	-0.014807067
138	0xbb8915a5	-0.0041834884
139	0xbcab804d	-0.020935202
140	0xbc6aad9d	-0.014323619
141	0xbd21dee1	-0.039519195
142	0xbd176540	-0.036961794
143	0xbcaf46b2	-0.021396015
144	0xbc66a0d2	-0.0140764285
145	0x3c21250d	0.009835494
146	0xbc6c5c83	-0.014426353
147	0xbd150075	-0.03637739
148	0xbd0b0204	-0.03393747
149	0xbd207d38	-0.039181918
150	0xbd2d88e9	-0.042366896
151	0xbd048b55	-0.03235944
152	0xbd894973	-0.067034625
153	0xbdab623a	-0.083683446
154	0xbe1b54b3	-0.15169029
155	0xbe32c052	-0.17456177
156	0xbda1c208	-0.07898337
157	0xbe028f0d	-0.12749882
158	0xbe0536a9	-0.13009132
159	0x3d10195e	0.035180442
160	0xbcd2699b	-0.025685122
161	0xbd63189e	-0.0554434
162	0x3bdadd0d	0.0066791833
163	0xbd003605	-0.031301517
164	0xbc512abe	-0.012766538
165	0x3acf166d	0.001579953
166	0x3d32422e	0.043520145
167	0x3d38d9d9	0.04512963
168	0x3d1399ad	0.03603523
169	0x3d384bf0	0.044994295
170	0x3d564126	0.052308224
171	0xbca8fe48	-0.020629063
172	0xbd75e7e5	-0.060035605
173	0xbd11f662	-0.03563536
174	0xbbcdcdf6	-0.006280656
175	0x3bace56c	0.0052763727
176	0x3d63a5e1	0.055578116
177	0xbd16689d	-0.03672086
178	0xbcf92f93	-0.030418193
179	0xbd1b59b2	-0.037927337
180	0xbcb192e7	-0.021676494
181	0xbc28cd1c	-0.010302808
182	0x3d87d927	0.066332154
183	0xbd0b8bb8	-0.034068793
184	0xbb07d46d	-0.002072598
185	0x3d439d15	0.047757227
186	0xbd94e868	-0.072708905
187	0xbca49f05	-0.020095358
188	0x3cf045b8	0.02933012
189	0xbca644ea	-0.020296533
190	0xbd6711a7	-0.05641332
191	0xbcf1a9ce	-0.029499914
192	0xbd35e4a3	-0.044407498
193	0xbcaf77a9	-0.021419363
194	0xbd816e36	-0.06319849
195	0xbd6c73e2	-0.057727702
196	0xbdc0c4ef	-0.09412562
197	0xbddbd8dd	-0.10734723
198	0xbca43c12	-0.020048175
199	0xbcc925ce	-0.02455416
200	0x3ce52266	0.027970504
201	0xbc8c5598	-0.017130658
202	0xbc2d8a1e	-0.010592012
203	0x3a92bb9f	0.0011194831
204	0xbd284140	-0.041077852
205	0xbd7437d3	-0.05962355
206	0xbda7669d	-0.08173869
207	0xbadb2b5f	-0.00167213
208	0xbbd91e74	-0.0066259447
209	0xbcb0acda	-0.021566797
210	0x3ccd552e	0.02506503
211	0xbd011b5f	-0.031520244
212	0x3c6d2961	0.0144751975
213	0x3d361c45	0.044460554
214	0x3d6379c7	0.055536058
215	0x3ca05672	0.01957247
216	0xbd03a19d	-0.03213655
217	0xbd8e22f1	-0.06940258
218	0xbd73d243	-0.059526693
219	0xbd50bcc9	-0.05096129
220	0xbd7dcd63	-0.06196345
221	0xbd82dd05	-0.063898124
222	0xbd915bff	-0.07097625
223	0xbd30d8d9	-0.043175552
224	0xbd0fb1d9	-0.035081718
225	0x3c34bd9b	0.011031534
226	0xbcfb3e0d	-0.030669237
227	0xbd7a0730	-0.06104201
228	0x3d17de6d	0.037077356
229	0x3c948460	0.018129528
230	0xbc50b933	-0.012739467
231	0x3daaf9ac	0.083484024
232	0x3d74f75c	0.059806213
233	0xbb15ffb7	-0.0022888014
234	0xbda8d557	-0.08243816
235	0xbdb4209a	-0.08795281
236	0xbdacebe9	-0.08443434
237	0xba87d9f3	-0.0010364637
238	0x3ba6e99a	0.0050937654
239	0x3c1ad58e	0.0094503295
240	0x3d83aa8e	0.06429015
241	0x3d90105a	0.07034369
242	0x3dbf4710	0.09339726
243	0x3d8aaec9	0.06771619
244	0x3d5323eb	0.051547926
245	0x3ca44329	0.020051556
246	0x3d007b8e	0.03136783
247	0xb9ba34b1	-0.00035515943
248	0x3d341296	0.043963037
249	0x3d48f815	0.049064714
250	0x3d339b84	0.043849483
251	0x3d0d61a5	0.03451695
252	0xbc67ad70	-0.014140472
253	0xbafe4a3b	-0.0019400785
254	0x3c6c27e3	0.014413807
255	0xbc966aaf	-0.018361418

decoder.3.conv.conv.bias f4 [40]
0	0xbc8ce25a	-0.017197777
1	0x3ba4229c	0.0050090086
2	0xbc237888	-0.009977467
3	0xbc8e48e7	-0.017368747
4	0xbd15085d	-0.03638493
5	0xbcb3d101	-0.021950247
6	0xbcf59ac7	-0.02998103
7	0xbd6e4df2	-0.058179803
8	0x3b51ee78	0.0032033008
9	0xbd5136bf	-0.0510776
10	0xbbdda5d9	-0.0067641553
11	0xbc950f61	-0.01819581
12	0x3d39ff03	0.045409214
13	0xbcdd85e9	-0.027041392
14	0xbb9f345f	-0.004858538
15	0xbccea6b5	-0.025225976
16	0xbd2b9253	-0.041887593
17	0x3b898306	0.0041965274
18	0xbcf07c77	-0.029356224
19	0xbe0a55e0	-0.13509321
20	0x3d03ae3d	0.03214859
21	0xbd02a1f5	-0.031892736
22	0xbdbb83f9	-0.09156031
23	0xbb57f809	-0.0032954237
24	0x3cacbfb0	0.021087497
25	0xbd05427a	-0.0325341
26	0xbc88359b	-0.016627124
27	0xbd879a47	-0.06621223
28	0x3d0b865a	0.034063675
29	0xbcb94b09	-0.022618787
30	0xbde37a04	-0.11107257
31	0xb91d56b4	-0.00015004986
32	0xbc4a35dd	-0.012341944
33	0xbd0804ae	-0.033207588
34	0x3d405efd	0.046965588
35	0x3c8f3b63	0.017484372
36	0xbc8ce54c	-0.017199181
37	0xbca49dbc	-0.020094745
38	0xbc8146df	-0.015780864
39	0x3c45a131	0.012062357

decoder.4.conv.conv.weight f4 [24, 40, 3, 3]
0	0x39de6107	0.0004241543
1	0x3bb8038e	0.005615658
2	0x3cb7ceed	0.022437537
3	0x3d17e0fc	0.037079796
4	0x3cb1e3c3	0.02171505
5	0x3cb50d7c	0.022101156
6	0x3da1925a	0.078892425
7	0x3cacda92	0.021100316
8	0x3ce6f447	0.028192652
9	0x3ca3d8bf	0.020000814
10	0x3cb0d296	0.02158479
11	0xbbc7639b	-0.006084872
12	0x3d12919b	0.03578339
13	0x3c655b39	0.0139988
14	0xbcc16d1c	-0.023611598
15	0xbc60dd2d	-0.013724607
16	0x3ce2cca6	0.027685475
17	0x3c18717b	0.0093044
18	0xbc9b5961	-0.018963518
19	0xbab3d169	-0.0013719025
20	0x3d8eea28	0.069782555
21	0xbcd80c79	-0.026373135
22	0xbb8cc269	-0.0042956364
23	0x3cb1b488	0.02169253
24	0xbccc0a63	-0.024907297
25	0xbc889517	-0.016672654
26	0xbbc1b269	-0.0059111607
27	0xbc475583	-0.012166384
28	0x3c938454	0.018007435
29	0xba91b99c	-0.0011117938
30	0xbb500dc4	-0.0031746486
31	0xbadde0c3	-0.0016927946
32	0xbc73331c	-0.014843728
33	0x3b81cc57	0.003961127
34	0x3cd0640a	0.025438327
35	0x3cc800ce	0.024414446
36	0xbc81397b	-0.01577448
37	0x3d15a1c0	0.03653121
38	0x3b085804	0.0020804415
39	0x3cbc6f19	0.023002194
40	0x3d532794	0.051551417
41	0x3c6c7136	0.0144312885
42	0x3d09df9a	0.03366051
43	0x3d2aaa3b	0.04166625
44	0x3c971292	0.018441472
45	0x3d8c81e1	0.0686071
46	0x3c8ddca4	0.017317124
47	0x3d39770f	0.04527956
48	0x3c0e00ab	0.008667151
49	0x3c995d0e	0.01872113
50	0xbb4f3dc7	-0.0031622516
51	0xbc8794cb	-0.016550442
52	0x3cbe2aa6	0.023213696
53	0x3cabd49f	0.02097541
54	0xbc1f975f	-0.0097406795
55	0xbce98de8	-0.028510049
56	0x3c13e7ce	0.0090274345
57	0xbbd418c3	-0.0064726784
58	0xbc0e8ce9	-0.008700588
59	0xbbf62ed3	-0.007512906
60	0x3c3395e6	0.010961032
61	0x3d42d21c	0.047563657
62	0xbc9dc6de	-0.019259866
63	0xbccdcdf5	-0.025122622
64	0xbcdd0c59	-0.026983427
65	0x38ff075c	0.00012160718
66	0xbd1bb3e7	-0.038013365
67	0xbc9922e8	-0.018693402
68	0xbca7fac6	-0.02050532
69	0x3b3dc672	0.0028957394
70	0xbc022b26	-0.007944858
71	0x3c85aaa0	0.016316712
72	0xbd801dd2	-0.06255688
73	0xbc0cb2be	-0.008587537
74	0xbd0cf825	-0.034416337
75	0xbcee5e48	-0.029097691
76	0xbb917374	-0.004438812
77	0xbcaef41d	-0.021356637
78	0xbc756c3f	-0.014979421
79	0x3c96c005	0.018402109
80	0xbc39e53f	-0.01134616
81	0x3cdfc30d	0.027314687
82	0x3d516747	0.051123884
83	0x3d71dcda	0.05904851
84	0x3ce71445	0.028207907
85	0xbbc4453f	-0.0059897
86	0x3cf4bbd7	0.029874725
87	0xba8019d2	-0.000977332
88	0x3c85f71f	0.016353188
89	0xbca12d39	-0.019674884
90	0x3c4baaa3	0.01243082
91	0x3acb2bdf	0.0015500746
92	0x3d5a2826	0.053260945
93	0xbc6b8daa	-0.014377037
94	0x3c594299	0.013260507
95	0x3d88a924	0.06672886
96	0xbbacd561	-0.00527446
97	0x3ad11382	0.0015951248
98	0x3c7968ba	0.015222723
99	0xbb9d43e5	-0.0047993534
100	0x3caee695	0.021350184
101	0x3bf018c1	0.0073271696
102	0xbcb077bd	-0.02154147
103	0xbd39e5b1	-0.045385066
104	0xbc7b952f	-0.015355392
105	0xbd030754	-0.03198941
106	0xbce562b2	-0.028001163
107	0xbd87eedf	-0.06637358
108	0x3bfcab0a	0.007710819
109	0x3b9e1872	0.0048246915
110	0xbcfc6137	-0.030808074
111	0xbb89ff6d	-0.0042113573
112	0xbcec9d7f	-0.028883694
113	0x3d3c6691	0.045996252
114	0x3b189c1c	0.0023286408
115	0x3cb84756	0.022494953
116	0x3ccdfe28	0.025145605
117	0xbc236079	-0.009971731
118	0xbc0b7987	-0.008512861
119	0x3d637431	0.05553073
120	0xbb7fa860	-0.0039010271
121	0x3c804e1c	0.015662245
122	0x3d09c33a	0.03363345
123	0x3c6758fe	0.0141203385
124	0x3d50352f	0.05083197
125	0x3cd69289	0.02619292
126	0x3ca9f0fe	0.020744797
127	0xbcbdee2a	-0.023184855
128	0xbc26c663	-0.010179135
129	0x3bff79db	0.0077965087
130	0x3d0604fd	0.0327196
131	0xbcacebad	-0.021108473
132	0x3cf1558e	0.029459741
133	0x3c198177	0.009369246
134	0x3bbd2328	0.005772013
135	0x3cf000f0	0.029297322
136	0x3cd6fa95	0.026242534
137	0x3c246e05	0.010035996
138	0xbd3d97a6	-0.0462872
139	0xbc9799f6	-0.018506031
140	0xbd046000	-0.032318115
141	0xbc893a44	-0.016751416
142	0xbd4bdf32	-0.049773403
143	0xbcbecc66	-0.023290824
144	0x3cecdfda	0.028915334
145	0xbd147e83	-0.036253463
146	0xbc97a794	-0.018512525
147	0x3d8e6bff	0.06954192
148	0xbca4a10c	-0.020096324
149	0xbb9bb5ac	-0.0047518816
150	0x3bd676d7	0.0065449285
151	0xbca7a8a2	-0.020466153
152	0xbd66a4c6	-0.056309484
153	0xbc160b51	-0.0091579715
154	0x3d2b6d14	0.041852072
155	0x3c08be9b	0.008346225
156	0x3c15ed4e	0.009150816
157	0xbb22c65a	-0.0024837465
158	0xbc37df62	-0.011222692
159	0x3c89423c	0.016755216
160	0x3c890676	0.016726714
161	0x3a0644bf	0.00051219383
162	0x3b9cdb86	0.0047869114
163	0x3d37445b	0.044742923
164	0x3c9a43b2	0.018831108
165	0x3c11d242	0.008900227
166	0x3cf5e3b0	0.030015796
167	0xbc4f5ccb	-0.012656401
168	0xbcb9d28d	-0.022683406
169	0x3c216d84	0.009852771
170	0x3c2521c5	0.010078852
171	0xbc735be5	-0.014853452
172	0xbb5ee77d	-0.003401249
173	0x3c632d3f	0.013865768
174	0xbc04e0bf	-0.008110224
175	0x3ceaa279	0.028641926
176	0xbb97b7ee	-0.0046300804
177	0x3cb4e36d	0.022081101
178	0x3b9595d0	0.004564978
179	0x3c03c6d4	0.00804301
180	0x3c20405b	0.009780969
181	0x3d17f447	0.037098195
182	0x3d03c24d	0.03216772
183	0x3c43d403	0.011952403
184	0x3cf846a4	0.030307122
185	0x3c7efb9a	0.015562916
186	0x3c2f3f28	0.01069621
187	0x3cfad5da	0.03061955
188	0x3d2f5721	0.042807702
189	0x3ca4f8d0	0.020138174
190	0x3d40ead1	0.04709894
191	0x3b200c2c	0.0024421318
192	0xbbb49f6f	-0.00551217
193	0x3cbf05f6	0.023318272
194	0x3cd12be0	0.025533617
195	0x3d13987d	0.036034096
196	0x3c61091b	0.013735081
197	0xbb4e884e	-0.003151435
198	0xbdaa98f7	-0.08329957
199	0x3c8c095f	0.017094312
200	0xbcd2f8da	-0.025753427
201	0xbd9f1bb2	-0.07768954
202	0x3d3f27d3	0.04666884
203	0x3ce1be1f	0.027556477
204	0xbd88d123	-0.06680515
205	0x3d1c31cc	0.038133428
206	0x3d09944a	0.033588685
207	0xbc5a6f20	-0.013332158
208	0x3cb1b4b9	0.02169262
209	0x3ca6496c	0.020298682
210	0x3d2a4556	0.04157003
211	0xbce94642	-0.028475884
212	0xbbf4732f	-0.00746002
213	0x3bd5e30a	0.0065273093
214	0x3c3ff145	0.011715238
215	0xbb7ee5d3	-0.003889431
216	0xbc8b279b	-0.016986659
217	0xbcab2bd5	-0.020894924
218	0xbd149ac6	-0.036280416
219	0xba86d57e	-0.0010287014
220	0x3ca2c848	0.019870892
221	0xbc0f9aa6	-0.008764898
222	0xbbaabce4	-0.005210506
223	0xbb31ef02	-0.0027150516
224	0xbb850509	-0.004059438
225	0x3d94d845	0.07267813
226	0x3d6e5ef3	0.05819602
227	0x3db9cd9c	0.0907242
228	0x3d33d77e	0.04390668
229	0x3cde5da4	0.02714426
230	0x3d0c7525	0.034291405
231	0xbc453f6a	-0.012039045
232	0x3d1c7012	0.038192816
233	0x3cfc6076	0.030807715
234	0x3cc04f76	0.02347539
235	0x3d403e68	0.046934515
236	0x3d10da70	0.03536457
237	0x3c9fd9b7	0.019512994
238	0x3c9487d8	0.018131182
239	0x3ccdc9ec	0.025120698
240	0x3bb90fdf	0.005647644
241	0xbc7049d4	-0.0146660395
242	0x3d39823a	0.04529021
243	0x3d5ed493	0.054401945
244	0x3d5c44d1	0.053776566
245	0x3d9f961d	0.07792304
246	0x3d50d151	0.05098087
247	0x3d09d4ed	0.033650327
248	0x3c6d90f4	0.014499892
249	0xbc3be206	-0.011467462
250	0xbc7bea86	-0.015375739
251	0xbc55b188	-0.013042815
252	0xbbb3d49a	-0.0054879906
253	0xbc342080	-0.010994077
254	0xbd5600b1	-0.052246753
255	0x3cc61c6b	0.024183473

decoder.4.conv.conv.bias f4 [24]
0	0xbcda9089	-0.026680248
1	0xbcb6b2d5	-0.02230207
2	0xbcbdf630	-0.02318868
3	0x3c6b98e7	0.0143797165
4	0xbc8d4c7f	-0.01724839
5	0xbba1aef5	-0.0049341866
6	0xbc9b396b	-0.018948277
7	0xbc76e8e3	-0.015070173
8	0xbc814cc4	-0.015783675
9	0xbd01e92e	-0.031716518
10	0xbbfc9ac0	-0.0077088773
11	0xbceaa0de	-0.02864116
12	0x3c67d7c3	0.014150563
13	0xbd3cfc50	-0.04613906
14	0xbc8c80e7	-0.01715131
15	0xbcb2d778	-0.02183126
16	0x3c392b9f	0.011301904
17	0x3bca789a	0.0061789276
18	0x3cd7bbd9	0.02633469
19	0xbd066480	-0.032810688
20	0xbb7f88be	-0.0038991417
21	0x3d7c4b74	0.061595395
22	0xbcad6265	-0.021165082
23	0x3b6e72a1	0.0036384242

decoder.5.conv.conv.weight f4 [24, 24, 3, 3]
0	0xbd2e506a	-0.042557158
1	0x3c19366a	0.009351352
2	0xbc2ba05f	-0.010475247
3	0x3cc1b088	0.023643747
4	0x3d2ce8e1	0.042214278
5	0x3d24bb5c	0.040217742
6	0x3d6453ba	0.05574391
7	0x3d7b393d	0.061333884
8	0x3d4b1e2b	0.049589317
9	0xbd79b9a4	-0.060968056
10	0xbc3a690b	-0.011377583
11	0xbc66e75f	-0.014093249
12	0x3bb65ce2	0.0055652717
13	0x3ceb1b90	0.028699666
14	0xbca68a2d	-0.02032956
15	0xbd5ec67f	-0.05438852
16	0x3b50095d	0.0031743862
17	0xbc042ad7	-0.008066854
18	0x3cdf79b1	0.027279707
19	0x3e1b4352	0.151624
20	0x3d961f3b	0.073301755
21	0x3d55a3ce	0.05215817
22	0x3e1466f5	0.144924
23	0x3d26af3d	0.040694464
24	0x3d86859d	0.065684535
25	0x3df50e28	0.11965591
26	0x3d1b5683	0.0379243
27	0xbd24207a	-0.040070035
28	0x3dd9b4a5	0.10630158
29	0xbca5c0c0	-0.020233512
30	0x3ce7ebf8	0.02831076
31	0x3e0cfaff	0.13767622
32	0x3d8574c4	0.06516412
33	0x3d5d7fd5	0.05407699
34	0x3e864920	0.26227665
35	0x3e02060e	0.12697622
36	0xbc2d53c9	-0.010579058
37	0xbc5061e9	-0.012718656
38	0xbd09d696	-0.03365191
39	0x3ccae29e	0.024766263
40	0x3b5490e3	0.0032434992
41	0xbd2e2586	-0.042516254
42	0xbb697e23	-0.0035628162
43	0xbc5423d3	-0.012947994
44	0xbcaf5501	-0.021402838
45	0x3d37d6ad	0.044882465
46	0x3cb0165b	0.021495035
47	0x3d9de268	0.07709199
48	0xbcc63a06	-0.02419759
49	0x3d12415f	0.035706874
50	0x3dbc3ad8	0.09190911
51	0xbcb7dd60	-0.022444427
52	0xbbede547	-0.007259998
53	0xbc444cff	-0.011981248
54	0xbdf86068	-0.12127763
55	0xbdd68800	-0.10475159
56	0xbdbd61bb	-0.09247156
57	0xbe250c41	-0.16117956
58	0xbdfb3e2d	-0.122677185
59	0xbdcb8a8f	-0.09938537
60	0xbcf630d3	-0.030052578
61	0xbc059d8f	-0.008155241
62	0xbc50792b	-0.012724201
63	0x3b8e5946	0.0043441383
64	0x3d0ccbc6	0.03437402
65	0xbac36fb1	-0.0014910606
66	0x3da0e1b8	0.078555524
67	0x3d9f5fae	0.07781921
68	0x3b2ab666	0.002604866
69	0x3db43bf5	0.088004984
70	0x3de856fc	0.11344716
71	0x3db0203e	0.085999
72	0x3912d847	0.00014004215
73	0x3d27fdac	0.041013405
74	0xbc58ffa9	-0.013244548
75	0xbcc8c217	-0.024506612
76	0x3c30f033	0.010799455
77	0x3cafc14d	0.021454478
78	0xba8c4d29	-0.0010704148
79	0x3d97f19f	0.074191324
80	0x3cc2aac7	0.023763074
81	0xbe589e12	-0.21154049
82	0xbea18c0a	-0.31552154
83	0xbdae90fc	-0.08523747
84	0xbe217ec5	-0.15771015
85	0xbea9b551	-0.33146146
86	0xbdc38016	-0.09545915
87	0x3d8fc968	0.07020837
88	0xbdc80829	-0.097671814
89	0x3d48a5d7	0.048986282
90	0x3d14dddf	0.036344405
91	0x3d36c3cd	0.044620324
92	0x3cb836ef	0.022487132
93	0x3cd42d04	0.025900371
94	0x3db3cbff	0.087791435
95	0xbd7fdbb5	-0.06246539
96	0x3d1e7c86	0.038692974
97	0x3d25e089	0.040497337
98	0xbd8de248	-0.06927925
99	0xbc04d066	-0.008106327
100	0xbc11aebf	-0.00889176
101	0x3d14b6e0	0.036307216
102	0xbd827184	-0.06369308
103	0xbd4ba8f3	-0.04972167
104	0xbc9f8f66	-0.019477557
105	0x3e257cc6	0.16160879
106	0x3e5d4768	0.2160927
107	0x3e794d55	0.24345906
108	0xbc60f5f5	-0.013730516
109	0xbb1e59fb	-0.002416252
110	0xbcb05f7f	-0.021529911
111	0xbd1b5e13	-0.037931513
112	0x3cab9bba	0.02094828
113	0xbb37418c	-0.0027962653
114	0xbc2df926	-0.010618484
115	0x3d105a93	0.03524263
116	0x3d2f5d03	0.042813312
117	0xbd48c23a	-0.049013354
118	0xbe387970	-0.18015075
119	0x3d823227	0.06357222
120	0xbe708ba5	-0.2349077
121	0xbebe0946	-0.3711645
122	0xbd9d217d	-0.07672403
123	0xbdab93eb	-0.083778225
124	0xbe7f2512	-0.24916485
125	0xbc34bf1e	-0.011031894
126	0xbd31c23d	-0.04339813
127	0x3d256221	0.040376786
128	0xbb8619fb	-0.0040924526
129	0x3b101771	0.0021986628
130	0x3e01da33	0.12680893
131	0x3d37d2ea	0.044878878
132	0xbd89bc5e	-0.06725381
133	0x3db8b71d	0.09019301
134	0xbd2793dc	-0.040912494
135	0xbd3d3fa6	-0.046203278
136	0xbd17cfe5	-0.037063498
137	0xbdda9e03	-0.106746696
138	0x3c9fe0bb	0.01951634
139	0x3d8239d8	0.06358689
140	0xbc99678e	-0.018726137
141	0xbd67340c	-0.05644612
142	0xbd064e2b	-0.03278939
143	0xbd93ea12	-0.0722238
144	0x3bdf7a47	0.0068199965
145	0xbd0decc2	-0.034649618
146	0x3bcad9be	0.0061905077
147	0x3c1b4a77	0.009478203
148	0xbc83a19b	-0.01606827
149	0xbc97755a	-0.018488575
150	0xbc086753	-0.008325416
151	0x3bc86675	0.0061157295
152	0xbc71e6d4	-0.014764506
153	0xbc9a586d	-0.018840993
154	0xbbc4c9d8	-0.006005507
155	0xbc190239	-0.009338909
156	0xbd60fcb7	-0.054928508
157	0xbca0c5c3	-0.01962555
158	0xbcb0e172	-0.021591876
159	0xbd01cc6c	-0.031689093
160	0xbc1c0ea0	-0.009524971
161	0x3b886951	0.0041629453
162	0x3e109809	0.14120497
163	0x3d0628b9	0.03275368
164	0x3d90da2f	0.07072865
165	0x3da5eedb	0.08102199
166	0x3b786c1b	0.0037906233
167	0x3c1b2fa9	0.009471812
168	0xbd7caf90	-0.061690867
169	0xbe4df8e7	-0.2011448
170	0xbdf79d92	-0.12090601
171	0x3c81e1b7	0.0158547
172	0xbda9794a	-0.08275087
173	0xbdfb8090	-0.12280381
174	0xbdbbc25e	-0.09167932
175	0xbe8e672d	-0.27813092
176	0xbeb5f04d	-0.35534897
177	0xbd7486be	-0.059698813
178	0xbe5cdfb2	-0.21569708
179	0xbe7d6a88	-0.2474767
180	0xbcb0cd87	-0.021582378
181	0xbdfb309d	-0.122651316
182	0xbe8310f7	-0.2559888
183	0x3d4735da	0.04863534
184	0xbe256a84	-0.16153914
185	0xbe4c3148	-0.19940674
186	0x3de932bc	0.1138663
187	0xbd016e41	-0.031599287
188	0xbca9182c	-0.020641409
189	0x3dc3489b	0.09535333
190	0x3e0cbcbf	0.13743876
191	0x3d8155da	0.06315203
192	0x3e16b774	0.1471842
193	0x3e0af90f	0.13571571
194	0x3d4a8f11	0.049452845
195	0x3e0bb0c9	0.13641657
196	0x3dc5410b	0.096315466
197	0xbcfd4493	-0.030916488
198	0xbd8a8d47	-0.06765228
199	0xbd12565e	-0.035726897
200	0xbd210a18	-0.039316267
201	0x3d89a154	0.06720224
202	0x3db5045b	0.08838721
203	0xbd2159c7	-0.03939226
204	0x3de4c509	0.11170394
205	0x3dfbe94b	0.123003565
206	0x3db75406	0.08951573
207	0x3dd1a3fc	0.10236356
208	0x3dd02853	0.10163941
209	0x3d08eccc	0.033428952
210	0x3d443964	0.047906294
211	0x3ca13df4	0.019682862
212	0xba967068	-0.0011477591
213	0xbd2626e6	-0.04056444
214	0xbda87370	-0.08225143
215	0xbdd50ccf	-0.10402834
216	0x3d049294	0.03236635
217	0x3d1649e8	0.036691576
218	0xbc62ecdf	-0.01385042
219	0x3ce9fbc0	0.028562427
220	0xbc1d8ec4	-0.0096165575
221	0xbc291013	-0.010318774
222	0x3d56bb78	0.052424878
223	0x3c6cd23a	0.014454419
224	0xbc9a78a9	-0.018856363
225	0x3c4bddee	0.012443049
226	0x3c314e08	0.010821827
227	0xbc9c97f3	-0.019115424
228	0x3c61109d	0.013736871
229	0xbd0dfb2a	-0.034663357
230	0xbca4824e	-0.020081665
231	0xbc62d4e4	-0.013844702
232	0xbc183f54	-0.009292442
233	0xbc4d6c78	-0.012538068
234	0xbd395353	-0.04524548
235	0xbd8b9847	-0.06816154
236	0xbd15c2a4	-0.036562577
237	0xbd73bf33	-0.059508514
238	0xbd1a2810	-0.037635863
239	0xbcdbc839	-0.026828872
240	0xbd8a84a9	-0.06763584
241	0xbd8e0108	-0.069337904
242	0xbcf4151d	-0.029795224
243	0xbc89cc20	-0.016820967
244	0x3bec219b	0.0072061545
245	0xbd789870	-0.06069225
246	0xbcb03278	-0.02150844
247	0x3bcbea06	0.006222966
248	0xbd9dbd7e	-0.077021584
249	0x3d12c5f3	0.03583331
250	0x3e07d220	0.1326375
251	0x3dbc1329	0.09183342
252	0x3d05f8df	0.032708045
253	0x3c237da1	0.009978683
254	0x3c0391c0	0.008030355
255	0x3c2a8640	0.010407984

decoder.5.conv.conv.bias f4 [24]
0	0xbd9b2853	-0.075760506
1	0xbb549bb7	-0.0032441446
2	0x3cd9474e	0.026523259
3	0x3c3d82fd	0.011566875
4	0x3c596d35	0.013270666
5	0x3c1f5c0c	0.0097265355
6	0xbcca65aa	-0.02470668
7	0x3d1bff98	0.03808555
8	0x3c924425	0.01785476
9	0xbddec861	-0.10878063
10	0xbbae8881	-0.005326331
11	0x3d0412f5	0.03224464
12	0x3ce66899	0.028126048
13	0xbcef72f2	-0.029229615
14	0xbca6808f	-0.020324973
15	0xbd356cd0	-0.044293225
16	0x3ca4ca4e	0.020115998
17	0x3c88b78e	0.016689088
18	0xbcef1522	-0.029184882
19	0xbcf98f9e	-0.03046399
20	0x3ceafeea	0.028686006
21	0xbcd386b1	-0.025821062
22	0x3d1907ab	0.03736083
23	0xbccd990f	-0.025097398
